{"class_name": "Model", "config": {"name": "model_3", "layers": [{"name": "inputs", "class_name": "InputLayer", "config": {"batch_input_shape": [null, 1600], "dtype": "float32", "sparse": false, "name": "inputs"}, "inbound_nodes": []}, {"name": "embedding_3", "class_name": "Embedding", "config": {"name": "embedding_3", "trainable": true, "batch_input_shape": [null, 1600], "dtype": "float32", "input_dim": 5000, "output_dim": 512, "embeddings_initializer": {"class_name": "RandomUniform", "config": {"minval": -0.05, "maxval": 0.05, "seed": null}}, "embeddings_regularizer": null, "activity_regularizer": null, "embeddings_constraint": null, "mask_zero": false, "input_length": 1600}, "inbound_nodes": [[["inputs", 0, 0, {}]]]}, {"name": "lstm_3", "class_name": "LSTM", "config": {"name": "lstm_3", "trainable": true, "return_sequences": false, "return_state": false, "go_backwards": false, "stateful": false, "unroll": false, "units": 256, "activation": "tanh", "recurrent_activation": "hard_sigmoid", "use_bias": true, "kernel_initializer": {"class_name": "VarianceScaling", "config": {"scale": 1.0, "mode": "fan_avg", "distribution": "uniform", "seed": null}}, "recurrent_initializer": {"class_name": "Orthogonal", "config": {"gain": 1.0, "seed": null}}, "bias_initializer": {"class_name": "Zeros", "config": {}}, "unit_forget_bias": true, "kernel_regularizer": null, "recurrent_regularizer": null, "bias_regularizer": null, "activity_regularizer": null, "kernel_constraint": null, "recurrent_constraint": null, "bias_constraint": null, "dropout": 0.0, "recurrent_dropout": 0.0, "implementation": 1}, "inbound_nodes": [[["embedding_3", 0, 0, {}]]]}, {"name": "FC1", "class_name": "Dense", "config": {"name": "FC1", "trainable": true, "units": 128, "activation": "linear", "use_bias": true, "kernel_initializer": {"class_name": "VarianceScaling", "config": {"scale": 1.0, "mode": "fan_avg", "distribution": "uniform", "seed": null}}, "bias_initializer": {"class_name": "Zeros", "config": {}}, "kernel_regularizer": null, "bias_regularizer": null, "activity_regularizer": null, "kernel_constraint": null, "bias_constraint": null}, "inbound_nodes": [[["lstm_3", 0, 0, {}]]]}, {"name": "activation_5", "class_name": "Activation", "config": {"name": "activation_5", "trainable": true, "activation": "relu"}, "inbound_nodes": [[["FC1", 0, 0, {}]]]}, {"name": "dropout_3", "class_name": "Dropout", "config": {"name": "dropout_3", "trainable": true, "rate": 0.5, "noise_shape": null, "seed": null}, "inbound_nodes": [[["activation_5", 0, 0, {}]]]}, {"name": "out_layer", "class_name": "Dense", "config": {"name": "out_layer", "trainable": true, "units": 20, "activation": "linear", "use_bias": true, "kernel_initializer": {"class_name": "VarianceScaling", "config": {"scale": 1.0, "mode": "fan_avg", "distribution": "uniform", "seed": null}}, "bias_initializer": {"class_name": "Zeros", "config": {}}, "kernel_regularizer": null, "bias_regularizer": null, "activity_regularizer": null, "kernel_constraint": null, "bias_constraint": null}, "inbound_nodes": [[["dropout_3", 0, 0, {}]]]}, {"name": "activation_6", "class_name": "Activation", "config": {"name": "activation_6", "trainable": true, "activation": "softmax"}, "inbound_nodes": [[["out_layer", 0, 0, {}]]]}], "input_layers": [["inputs", 0, 0]], "output_layers": [["activation_6", 0, 0]]}, "keras_version": "2.2.4", "backend": "tensorflow"}